calibration/calibrated_config/adc_limits_ResNet18_corestyle_BALANCED_nslices_1_weightbits_2.npy (npy, 464 bytes, 1 tensors)

array f8 [21, 2]
00000000: 0000 00c0 ffff ffbf 0000 0060 4020 0040
00000010: 0000 00e0 d4d4 f4bf 0000 00a0 9c9c dc3f
00000020: 0000 0080 7979 f9bf 0000 00a0 9b9b fb3f
00000030: 0000 0020 2323 f3bf 0000 0060 5f5f ef3f
00000040: 0000 0080 4c4c fcbf 0000 0000 f7f6 0640
00000050: 0000 0080 7f7f efbf 0000 0000 faf9 f93f
00000060: 0000 0040 3636 e6bf 0000 0020 fffe fe3f
00000070: 0000 0080 7676 f6bf 0000 0040 1e1e de3f
00000080: 0000 0020 1818 e8bf 0000 00c0 b2b2 f23f
00000090: 0000 0020 1a1a dabf 0000 00e0 d7d7 d73f
000000a0: 0000 0020 1a1a eabf 0000 0020 1a1a 0a40
000000b0: 0000 00a0 9595 d5bf 0000 0020 1a1a fa3f
000000c0: 0000 0000 f5f4 e4bf 0000 00a0 9d9d cd3f
000000d0: 0000 0080 7777 f7bf 0000 0040 3636 f63f
000000e0: 0000 0020 1d1d cdbf 0000 00c0 bbbb fb3f
000000f0: 0000 0000 0000 0000 0000 0060 5353 f33f
00000100: 0000 0040 3333 e3bf 0000 00e0 d8d8 e83f
00000110: 0000 0060 5050 d0bf 0000 00a0 9393 d33f
00000120: 0000 0020 1111 c1bf 0000 0060 7878 1440
00000130: 0000 00a0 9797 d7bf 0000 0000 0000 2040
00000140: 0000 0000 0000 0000 0000 0060 6565 f53f
-1.999999761581421 2.0157477855682373 -1.301960825920105 0.4470588266849518 -1.5921568870544434 1.7254902124404907 -1.1960784196853638 0.9803921580314636
-1.768627643585205 2.8705883026123047 -0.9843137264251709 1.6235294342041016 -0.6941176652908325 1.9372550249099731 -1.4039216041564941 0.4705882668495178
-0.7529411911964417 1.1686275005340576 -0.40784314274787903 0.37254902720451355 -0.8156862854957581 3.2627451419830322 -0.33725491166114807 1.6313725709915161
-0.6549019813537598 0.23137255012989044 -1.4666666984558105 1.388235330581665 -0.22745098173618317 1.7333333492279053 0.0 1.2078431844711304
-0.6000000238418579 0.7764706015586853 -0.2549019753932953 0.30588236451148987 -0.13333334028720856 5.11764669418335 -0.3686274588108063 8.0
0.0 1.3372548818588257
