calibration/calibrated_config/adc_limits_ResNet18_corestyle_BALANCED_nslices_1_weightbits_10.npy (npy, 464 bytes, 1 tensors)

array f8 [21, 2]
000000 9b f8 3f 7b 64 8e 01 c0 a8 de f6 ed 3b 9e 00 40
       -2.194527590646499 2.077262744041793
000010 09 1b d4 80 e3 43 11 c0 bc 2e a6 a2 58 f6 00 40
       -4.316297543474101 2.120286246010293
000020 da 9a 36 7c e4 d8 07 c0 10 77 35 b3 ba e6 03 40
       -2.9809045509494867 2.487660789555669
000030 82 24 64 c2 3d 4b 0e c0 d8 88 d7 e3 d4 c9 0b 40
       -3.786738890343771 3.4735505867148326
000040 4b 90 76 67 af 0a 0a c0 04 11 47 41 16 cd 00 40
       -3.2552173693712 2.100140104275967
000050 f6 62 e8 62 34 5e 02 c0 fe c9 6b 71 a6 67 03 40
       -2.295998356549144 2.425610433675728
000060 70 56 51 02 4c d7 05 c0 2c 2c d1 da 8c 3a f6 3f
       -2.730125444514492 1.389294485811443
000070 d5 7d 7b 8a 0a bb ef bf e8 24 28 fd 92 7b ef 3f
       -0.9915821747526318 0.9838347382039077
000080 6c 11 0e ab 34 21 0b c0 4a 3e 6c c0 88 37 01 40
       -3.3912137378376226 2.1521163018258322
000090 4d 64 9f 7f 97 89 00 c0 08 db 93 20 8a 87 f7 3f
       -2.0671834917562024 1.4705907127915356
0000a0 cf 3f 4e 76 b8 bc 07 c0 88 f8 05 0f b4 e3 02 40
       -2.967148708594301 2.361183278436389
0000b0 16 69 b5 b6 c9 92 f6 bf 32 90 de 32 9d f6 f1 3f
       -1.410836900430302 1.1227085101209124
0000c0 e7 b3 b0 23 f3 c9 e7 bf cf 91 8f f6 c1 b2 dd 3f
       -0.7434020707202053 0.464035502225923
0000d0 b3 fd d7 11 26 d6 06 c0 ec d5 66 4d 96 f8 ff 3f
       -2.854564799694083 1.9981902144912693
0000e0 76 9f d4 c6 01 d2 f2 bf a2 ee 61 fd 89 27 e3 3f
       -1.1762712256258658 0.5985765408399468
0000f0 d6 9c d9 53 ac 6c fd bf 9a 94 63 16 7d 10 f2 3f
       -1.8390315318481973 1.129025542695024
000100 98 f6 d0 73 5e ba e6 bf 00 00 00 e0 0a cd e1 3f
       -0.710250116542471 0.5562795996665955
000110 63 83 80 c0 7d eb e5 bf 9a 23 97 95 87 95 e2 3f
       -0.6849964866452009 0.5807531282126661
000120 c2 d6 be a8 43 62 f0 bf 00 94 cd 24 ad 76 e8 3f
       -1.0239903060550408 0.7644868582543722
000130 46 34 61 26 99 e3 f0 bf 80 24 42 47 82 8f f4 3f
       -1.0555659770209487 1.2850363524942452
000140 d7 bc 3f 95 28 9d fd bf 25 71 03 01 f3 9d 0b 40
       -1.8508687810934157 3.4521236495185286
