calibration/calibrated_config/adc_limits_ResNet18_corestyle_BALANCED_nslices_1_weightbits_8.npy (npy, 464 bytes, 1 tensors)

array f8 [21, 2]
000000 40 5d e2 6f 90 7c 00 c0 c8 fb 68 5b 69 1a 00 40
       -2.0608223668056382 2.012896265164702
000010 49 f8 ca 9a ca 39 11 c0 0c 01 bb 0a ab 09 00 40
       -4.306436937940881 2.004720767814552
000020 44 6b 62 6c e9 0b 06 c0 2c 4b 84 0a 68 44 01 40
       -2.75581631350852 2.15840156761387
000030 59 64 6e 02 59 00 0c c0 30 98 e4 da 51 5d 02 40
       -3.500169772142311 2.295566282368803
000040 6a 9d 8c 31 89 61 02 c0 e8 0b 91 89 20 27 fa 3f
       -2.2976249571835767 1.6345525144286004
000050 0b 8d 95 f3 62 7d 03 c0 48 cf d3 30 1b 92 fd 3f
       -2.436223891259606 1.848170462352714
000060 37 7e 9f 2d c5 4b 09 c0 67 93 df 79 b4 20 f7 3f
       -3.161997181348649 1.4454846153905352
000070 a8 57 0a 32 b3 74 e5 bf 00 00 00 60 8d ad ed 3f
       -0.6704956033088267 0.927435576915741
000080 48 13 10 15 49 69 09 c0 9e 0e 0c 6b 3e b9 ff 3f
       -3.176408924630241 1.982725542214133
000090 8f 1f c9 33 b4 83 06 c0 ac f6 cb 1f 9c ea 01 40
       -2.8143085523369744 2.239555595790838
0000a0 e5 c1 ab c7 45 41 0a c0 dc a1 19 af 1a e9 05 40
       -3.281871375970001 2.7388204269120546
0000b0 5a 1d e6 df 28 f7 f6 bf 0e e1 83 fb 58 2a f3 3f
       -1.4353417154360018 1.1978387665568024
0000c0 c9 a6 39 bb 5f 8e e5 bf 51 2a 08 d7 70 46 dc 3f
       -0.6736296326391421 0.4417993640824181
0000d0 e8 73 28 ee 99 f7 07 c0 fa 10 7f 9a ac 3d 00 40
       -2.9958990675063326 2.030114371302372
0000e0 a1 58 ed 74 51 1b f4 bf 4e 6c 9d 32 8f 0f e3 3f
       -1.2566694800821454 0.5956493366787841
0000f0 7a 5b 3c 4f a0 0f ff bf 74 99 c3 5f 6e 63 f3 3f
       -1.9413149924418733 1.2117751827987293
000100 2a 63 bc 42 91 40 e8 bf da 19 41 c6 09 2b e0 3f
       -0.7578817656932177 0.5052536842493354
000110 dc 44 6d 31 ef 97 ed bf 80 f4 fc da b9 e7 ec 3f
       -0.9247966733329593 0.9032868649589005
000120 00 00 00 40 19 b2 ee bf 7c ba 13 2f bd 21 e4 3f
       -0.9592405557632446 0.6291185302232658
000130 58 dc 85 51 08 22 f1 bf 18 11 3a d9 ad 87 f4 3f
       -1.0708087143409752 1.2831247792647158
000140 37 f8 16 26 ce 6e fa bf 81 14 ab 74 ad 6f 0a 40
       -1.6520520675544625 3.304530059309912
