calibration/calibrated_config/adc_limits_ResNet18_corestyle_BALANCED_nslices_1_weightbits_12.npy (npy, 464 bytes, 1 tensors)

array f8 [21, 2]
000000 63 65 b5 75 25 89 02 c0 a0 e3 ac 16 9d 45 01 40
       -2.3169659801466636 2.1589910289298615
000010 07 b8 f3 3f 2f 96 10 c0 20 51 d7 a0 b0 4b 00 40
       -4.146664618730944 2.036957985468817
000020 43 7a d2 b0 b8 29 06 c0 a0 dc ad 06 73 48 00 40
       -2.7703718008263265 2.035375644856302
000030 4d 38 d5 68 b5 8e 0e c0 80 bb 6f 90 8c c2 02 40
       -3.8196819486684377 2.344994667444041
000040 8a b0 d6 96 5e 53 01 c0 12 bf 09 f6 46 75 f9 3f
       -2.165707758356864 1.5911321268903902
000050 24 3c e3 42 92 91 05 c0 df da 63 1f 6f 66 05 40
       -2.6960797525021167 2.6750166370724027
000060 21 35 61 10 8f 43 09 c0 3a 83 1d 21 9e 4c 00 40
       -3.1579877166428933 2.037410982812074
000070 f5 c9 13 a6 7e 9a ec bf 08 16 52 b0 b7 2e ef 3f
       -0.8938592189500115 0.9744528239977521
000080 3f 5e 6d 56 a9 90 0f c0 d8 42 64 f9 a8 74 06 40
       -3.9456354858519087 2.8069629176828634
000090 97 2a 28 01 ba 08 00 c0 d4 db 47 2a 51 d0 f6 3f
       -2.004261025465279 1.4258586551275032
0000a0 dc 61 aa 6f 6d dc 0c c0 dd a3 2e f2 9e 3d 03 40
       -3.6076306079741993 2.405088321731894
0000b0 82 83 29 18 35 9d f6 bf 53 87 e3 b9 e7 fe f1 3f
       -1.4133807128748406 1.124732710006772
0000c0 8b ab 8b f5 24 3a e6 bf d2 2a 45 20 16 9e de 3f
       -0.6945977016269905 0.4783988299501917
0000d0 b3 e6 47 cb 4e 0e 05 c0 cc ba bf d4 50 0e f5 3f
       -2.63198622525382 1.3159950552468898
0000e0 86 97 e2 63 ad 6b f4 bf ff 65 63 d4 ec 46 e6 3f
       -1.2762884046328238 0.6961578510483263
0000f0 63 3a a5 48 3e 8c fe bf 88 66 fe b3 65 89 f1 3f
       -1.9092390859329036 1.0960442572599352
000100 e1 6d 56 7d 5a a2 e8 bf f2 39 6f d7 f0 c3 dc 3f
       -0.7698185394287372 0.449459276566727
000110 7a f1 16 a6 90 53 e4 bf 42 1f 99 98 81 3d e3 3f
       -0.6352008098543103 0.6012580852920808
000120 da 7f e3 b3 2b 2d f0 bf 60 04 9a bc a4 a5 e1 3f
       -1.0110280062581212 0.5514701541543552
000130 2c 20 13 54 df 36 f2 bf 98 8b ae 95 4f db f3 3f
       -1.1383965763252588 1.2410426947542188
000140 ca 05 f7 35 0b fd fc bf 70 5f 8c d3 92 94 0e 40
       -1.8117782695775184 3.822545674058283
