calibration/calibrated_config/adc_limits_ResNet18_corestyle_BALANCED_nslices_1_weightbits_4.npy (npy, 464 bytes, 1 tensors)

array f8 [21, 2]
00000000: 9236 78e6 592a 02c0 0000 0020 48ed 0040
00000010: 4f00 0afa a9a2 13c0 12f0 e933 ff47 0240
00000020: 1db3 2501 261b 0dc0 0000 00c0 cd5f 0440
00000030: 61da 45a4 580f 0dc0 2c4a 6802 6666 0640
00000040: ef92 8cee 9b9b 0bc0 0000 0020 401b 0240
00000050: 0000 00a0 7272 02c0 f4d9 5bd3 5a5a 0a40
00000060: 6a15 cd97 5243 07c0 8de8 374e 9401 0540
00000070: 2465 8d1f 6df3 f1bf 0000 0060 86cf f13f
00000080: 0000 0020 8f45 13c0 c26f 53b6 6920 0640
00000090: 0000 00a0 e8c3 02c0 0000 00a0 fd21 fb3f
000000a0: 04c8 dd9c f889 0ec0 8116 eb8e 5d5d 0d40
000000b0: f912 fc92 b143 08c0 5630 b388 b1d3 0140
000000c0: 1f2e 7fee e932 f5bf 57b8 6145 07a7 ee3f
000000d0: 7e25 c9b5 e8c3 12c0 03d9 79a0 0558 0e40
000000e0: eeaf ab36 fd30 0ac0 b9ce 5907 f2a8 f63f
000000f0: adc9 1b88 9bb6 02c0 e0fc 40bc e198 f63f
00000100: 0000 00c0 2929 f9bf 2d90 a0da 22fe f43f
00000110: 976b 0174 222e f2bf 7788 3ab1 5551 ef3f
00000120: 9a96 eb02 a202 0ac0 efa0 182c a359 f73f
00000130: 706a ed8b 33c5 f9bf 44ef 97b4 27f9 f93f
00000140: ebe7 f3e2 8439 01c0 5ab1 55dc b2b2 0a40
-2.270679283660521 2.1158602237701416 -4.908851534710336 2.285154729439463 -3.638256081545832 2.546779155731201 -3.6324932893578965 2.799999254996939
-3.4509810101175087 2.263305902481079 -2.305882692337036 3.294118548622686 -2.9078723773442805 2.6257711516200914 -1.1219302399170568 1.113165259361267
-4.817928791046143 2.7658266300404373 -2.345658540725708 1.6957985162734985 -3.8173687224561963 3.670588604497255 -3.033053539579097 2.22836596295205
-1.3249301258355286 0.9578892092811299 -4.691317406084066 3.7929794823822944 -3.2739204665322097 1.4162464415684737 -2.3391638406257784 1.4123246530214644
-1.57254958152771 1.3120449581265448 -1.1362633258311001 0.9786785565850228 -3.2512855747361984 1.4593841288097413 -1.6106448617853424 1.6233288816865334
-2.153085492199343 3.33725521217836
